…
vation = 'relu'))\nmodel.add(Conv2D(128, (3,3), activation = 'relu'))\n\nmodel.add(Flatten())\n\nmodel.add(Dropout(0.40))\nmodel.add(Dense(256, activation = 'relu'))\nmodel.add(Dropout(0.40))\nmodel.add(Dense(6, activation = 'softmax'))\n\nmodel.summary()",
      "execution_count": 16,
      "outputs": [
        {
          "output_type": "stream",
          "text": "_________________________________________________________________\nLayer (type)                 Output Shape              Param #   \n=================================================================\nconv2d_7 (Conv2D)            (None, 126, 126, 32)      320       \n_________________________________________________________________\nconv2d_8 (Conv2D)            (None, 124, 124, 32)      9248      \n_________________________________________________________________\nconv2d_9 (Conv2D)            (None, 122, 122, 64)      18496     \n_________________________________________________________________\nconv2d_10 (Conv2D)           (None, 120, 120, 64)      36928     \n_________________________________________________________________\nmax_pooling2d_2 (MaxPooling2 (None, 60, 60, 64)        0         \n_________________________________________________________________\nconv2d_11 (Conv2D)           (None, 58, 58, 128)       73856     \n_________________________________________________________________\nconv2d_12 (Conv2D)           (None, 56, 56, 128)       147584    \n_________________________________________________________________\nflatten_2 (Flatten)          (None, 401408)            0         \n_________________________________________________________________\ndropout_3 (Dropout)          (None, 401408)            0         \n_________________________________________________________________\ndense_3 (Dense)              (None, 256)               102760704 \n_________________________________________________________________\ndropout_4 (Dropout)          (None, 256)               0         \n_________________________________________________________________\ndense_4 (Dense)              (None, 6)                 1542      \n=================================================================\nTotal params: 103,048,678\nTrainable params: 103,048,678\nNon-trainable params: 0\n_________________________________________________________________\n",
          "name": "stdout"
        }
      ]
    },
    {
      "metadata": {
        "trusted": true,
        "_uuid": "bdc175ecde337195ecb3997c8e8d7bf3935755af"
      },
      "cell_type": "code",
…
